android/app/src/main/assets/model5.tflite (tflite, 373688 bytes, 12 tensors)

model_19/dense_19/BiasAdd/ReadVariableOp f4 [2]
00000000: 2dbd 893d 29bd 89bd
0.067255355 -0.067255326

model_19/dense_19/MatMul f4 [2, 4096]
00000000: a381 cebe 51c3 e13d 9844 0cbe 5720 00be
00000010: bbb9 4bbd e369 d8bd 7e3b 103e 4a3f 0fbe
00000020: a285 12be f258 0cbe dc90 81be 9b74 b93d
00000030: e8f4 d63c 739d 2fbe 0ebc 3abe 8f81 aebd
00000040: 76bf 62be 3baa 7d3d bd93 03be 40e7 58b9
00000050: f481 74bb 58be fe3c 37ce e83d 57fa f7bd
00000060: 7a19 893c b8c3 b9bc a85f 42bd 711c b83d
00000070: 7995 0ebe 924e 0cbe 6a97 0ebe 8dbb 07bb
00000080: 1bd5 3bbe 0087 333e 2730 8dbd ef09 01be
00000090: d7fc 513d 174b 92bd 5179 d53d f407 dabc
000000a0: 0e9b 57bd bae1 5a3d 0a66 8ebd bc21 d73d
000000b0: 4395 d83d 52fc 053d 1f84 06bd 917f dcbd
000000c0: f8ce 63be ff95 123e 5001 fcbd 8164 dabd
000000d0: 126f 4a3d ebfb 89bd 0e8a 133e 62f7 c6bd
000000e0: 28e6 b3bd c80c ecbd eee5 81bd 173d 043e
000000f0: baef 053d 8596 95bd a833 8ebd dddd f6bd
00000100: 9a4b 4ebe 358a 903d 3543 5dbe 5159 9c3a
00000110: 621c 0dbd a9ef b6bd 30e9 ba3d 7579 acbd
00000120: 7ec0 c8bd d059 4fbe 434f 0dbd f761 073d
00000130: a00c c0bd ac93 ddbd 818a 32bd 3311 93bd
00000140: fb40 53be f711 af3d 5fe7 86bc 4582 28be
00000150: 401c 5dbc 75cd bfbd a89d e83d 1b46 2cbe
00000160: 28e8 14bd 1097 cebd c489 09be cd42 f73d
00000170: 7b15 dbbc ee82 7a3c 2dc8 fdbc 32a6 fabd
00000180: 1793 4bbe bdb4 e03d c53e 0bbe 01b9 8cbd
00000190: 9e46 06bd b258 a1bd 7203 a13d 72ac 87bd
000001a0: b452 85bd 5bd3 ffbd a81a c0bd 3580 1c3d
000001b0: 90b5 793d 7e52 55bd bba8 10be 5743 0fbd
000001c0: 1b6e 41bd c1f2 2d3d e77e 2cbd fd5f 0fbe
000001d0: b56d 303c 0f71 bebd f596 b43d b9ea 65be
000001e0: b9b3 abba bdd5 39be b840 a5bd 9b3f 9c3d
000001f0: 8793 3fbe e989 243d 26bc 273a e0bd e2bc
00000200: b797 8abd 7a06 b23d 5cef e0bd 9345 b3bd
00000210: 893c 2dbe 3b85 bdbd 4762 b1bc ec74 f8bd
00000220: f473 35bd 41a8 4ebd 1575 44bc 6518 203d
00000230: f6f0 27be 2244 fdbd 2a43 58bd 6937 93bc
00000240: bdba 18be 88c9 c93d ce63 9abc 12b2 64be
00000250: 327e 11be 6112 a4bd 9a98 b33d b821 d2bd
00000260: fc9f 0dbe 9172 76bd 1f99 afbd 63e5 203e
00000270: 17ae d8bd 0c1c d9bd 0c51 cbbd 349e a2bd
00000280: a40c 54be 2829 043e ebb7 f8bd 0f54 d0bd
00000290: 49b5 87bc 003e 40bd 120f ae3d 81b8 19bd
000002a0: 1c0b b0bd 20e2 23bd 809c 61bd d68a eb3d
000002b0: 999e e1bd f71c e3bc 66e7 0f3d 086f 5d3c
000002c0: 0e2d 89be a6fa ab3d db14 c2bd 2037 d3bd
000002d0: e8d4 66bc 49c1 2fbd 4832 113d 5eeb e0bd
000002e0: cb19 04be 4967 a3bd d336 8dbd 54e2 ce3d
000002f0: bd5e 06bd d46a 5bbd 61e3 acbd 05fc f8bd
00000300: 21eb 6cbe d4c0 b13d cfc8 f7bc cfaf dcbd
00000310: ddfb 1bbd f06e c5bd 5e5a e83d 7c64 bfbd
00000320: 3f49 3dbd ed00 83bd 020e a8bd d242 1c3e
00000330: 2b69 dfbd 6d8b 3c3d 8488 b7bd 33ec bebd
00000340: 48ba 33be 5a29 133e 0131 e2bd 3f10 16be
00000350: 298f f4bc f2b9 f4bd 82cd c33d 6b43 a2bd
00000360: 49b5 6bbd 30ed febd 312b c5bd 3c6b 803d
00000370: 772e e9bd 0d09 a9bd 0953 7dbd 9f71 78bd
00000380: 49fd 1abe 34b0 343e 2cde 19be 77ad ccbd
00000390: ffb6 c23b f242 18bb 2e0a 093e d473 e2bd
000003a0: 93ce dcbd a5ba 22bd f523 7fbd f621 e93d
000003b0: 7730 323d 2215 1abe 22e3 97bb 673e d1bd
000003c0: 6c8c 56be 246c 173e 1411 31be 28da 76be
000003d0: 5b68 c93c 42d8 c5bd 155e 223e 3495 69be
000003e0: 6963 47be 21fd 0ebe 2a56 bbbd 75dc 143e
000003f0: d6ec 94bd da67 f7bd e0e6 70be 1b49 53be
-0.4033328 0.11023582 -0.13698041 -0.12512337 -0.049737673 -0.10567071 0.14085194 -0.13988987
-0.1430879 -0.13705805 -0.2530583 0.09055444 0.026239827 -0.17149906 -0.182358 -0.08520805
-0.22143349 0.061929923 -0.12849326 -0.00020685513 -0.0037308903 0.031096622 0.11367457 -0.121082954
0.016735781 -0.022676334 -0.047454506 0.089898 -0.13924207 -0.13701847 -0.13924947 -0.0020711154
-0.18343012 0.17531967 -0.0689395 -0.12601446 0.051266517 -0.071432285 0.1042353 -0.02661512
-0.052638106 0.053437926 -0.06953056 0.10504481 0.105753444 0.032711335 -0.032840844 -0.10766519
-0.22246921 0.14315031 -0.12304938 -0.10663701 0.04942233 -0.06737503 0.14408132 -0.09715153
-0.08784133 -0.11525875 -0.06342684 0.12913929 0.032699324 -0.073041 -0.069434464 -0.12054036
-0.20146027 0.07057611 -0.21607669 0.0011928474 -0.034450896 -0.0893243 0.09126508 -0.084216036
-0.0980234 -0.20249104 -0.034499418 0.03305241 -0.09377408 -0.10819182 -0.04358912 -0.07181015
-0.20630257 0.085483484 -0.016467748 -0.16455944 -0.013495505 -0.0936536 0.113581955 -0.16823618
-0.036354214 -0.10087407 -0.1343146 0.12073288 -0.026743641 0.015290005 -0.03097924 -0.122387305
-0.19880329 0.10971973 -0.13598163 -0.06871224 -0.03278219 -0.078782454 0.07861985 -0.06624688
-0.06509915 -0.12491485 -0.09380084 0.038208205 0.060964167 -0.052080624 -0.14126866 -0.03497633
-0.047224145 0.042467836 -0.04211321 -0.1400146 0.010768344 -0.09298908 0.08817855 -0.22452821
-0.0013099826 -0.18147941 -0.08068985 0.07629319 -0.18708621 0.040170584 0.0006398581 -0.02767843
-0.067672186 0.086926416 -0.10983154 -0.087535046 -0.16917624 -0.09253927 -0.021653308 -0.12131676
-0.044300035 -0.05045343 -0.011990805 0.039085764 -0.16400513 -0.12366511 -0.052798428 -0.017970758
-0.14914985 0.09852892 -0.018846419 -0.22333553 -0.14208296 -0.08011318 0.08769341 -0.102603376
-0.1383056 -0.060167853 -0.085741274 0.15712504 -0.1058008 -0.10601053 -0.09927568 -0.07940331
-0.20707947 0.12906325 -0.121444546 -0.10172283 -0.016565936 -0.046934128 0.08498968 -0.037529472
-0.08595869 -0.04001057 -0.05508089 0.1150109 -0.11016578 -0.027723772 0.035132788 0.013515241
-0.26792186 0.08397417 -0.09476634 -0.10313249 -0.014088847 -0.04290894 0.035448343 -0.10982393
-0.12900464 -0.079786845 -0.068952225 0.101017624 -0.032805193 -0.053568676 -0.084418066 -0.12157444
-0.2313657 0.08679357 -0.03024712 -0.1077572 -0.038081992 -0.096403 0.11345361 -0.09345338
-0.04621243 -0.06396661 -0.08205797 0.15259865 -0.10908731 0.046031404 -0.08961585 -0.09322395
-0.1755153 0.14371243 -0.11044503 -0.14654635 -0.02985342 -0.11949529 0.09560682 -0.07923015
-0.057545934 -0.12447584 -0.09627379 0.06270453 -0.113858156 -0.082536794 -0.061846767 -0.060655233
-0.15135683 0.17645341 -0.15026158 -0.09994023 0.005942225 -0.0023233262 0.1338279 -0.11057249
-0.107815884 -0.03972878 -0.06229015 0.11383431 0.04350325 -0.15047124 -0.0046352306 -0.102169804
-0.20952004 0.14787346 -0.17291671 -0.24106658 0.024585893 -0.096603885 0.15856202 -0.22810823
-0.19471516 -0.13963749 -0.09147294 0.14537223 -0.07271735 -0.12080355 -0.23525572 -0.20633356

model_19/conv2d_95/Conv2D f4 [32, 3, 3, 3]
00000000: af4e 763d c002 563e cf4c d33d 05be 863d
00000010: edf9 ac3d 613a 173d b621 0abe 7c62 2ebe
00000020: f132 52bd 294f bf3d e35d 503e 982d 09bd
00000030: 85cd f03d e84b 983c c944 173e 037e 17bb
00000040: e81a b6bd 28f2 5cbd 7449 b93d 3135 423d
00000050: bc97 97bd 45f7 f4bd 22d4 f4bd 36da e83d
00000060: c8ee 13be 6200 14be 15be f3bd 9347 123e
00000070: 1e06 143d a9f8 523e 1909 4ebd 18d2 d5bc
00000080: e98a 973d 42c4 0dbe b1cc 5cbd c6aa f13c
00000090: 151f b03d 0de5 3ebd 8880 1f3e 8b9c 863d
000000a0: 8745 3fbd 972e 18bd 8bdf 10be b3ce 46be
000000b0: d10a f3bd 2e36 f0bc b4f4 f83d b6f0 8abc
000000c0: 196b cfbc ee52 ebbd ad70 2dbd e0f5 53bd
000000d0: d623 02be 2af4 d9bd ff6b 0cbe 7e72 433d
000000e0: 9079 1ebe 3fd1 bf3d 8592 04be e047 0d3e
000000f0: 18d5 023e 3910 283e ca90 1d3e 1be1 25be
00000100: 3e76 05be 4146 1bbe 19ce 2cbd 2229 b0bd
00000110: 8859 253c 4698 903d fda5 a3bd 7a6f 5dbc
00000120: 90db 8cbd 9f2b ae3d 5756 b83d 627b 603c
00000130: 98c2 20bc 167a 823d 7ddc a4bc c7a7 193c
00000140: fb3e 383d ba28 e93d 7d2b 783e ddf8 543e
00000150: 16b1 223b cab1 88bd d524 bb3d c13c 6b3d
00000160: 5370 0abd fa5b c8bd 68b6 6abd da38 0a3e
00000170: b184 c3bc 1ffd 22be 2da6 a33d 6649 2bbe
00000180: e93c 073d 4bf9 e4bd a9cd 413d 263d 65bb
00000190: 0138 18be 37a7 de3d 0587 1ebe 6f90 5cbe
000001a0: 7af1 f5bd 5e7c 79bd 8088 b6bd 05e3 42be
000001b0: c383 9cbd 3789 993d 3b4d cabd d399 af3d
000001c0: 409f 9c3d c77b 22be 56d8 94bc 9f1b acbd
000001d0: 4b44 42be 1e34 ec3c 4f7a d83d 723d 13bd
000001e0: 6230 3dbe 7d13 10be d3ee 55be bd83 5bbd
000001f0: 7ac1 283d 0f73 41be e136 d23c 322a f23c
00000200: c675 95bc 15b1 5dbd 5af7 843d cf9c 57be
00000210: 5cfb 57be be17 afbd a50e 50be 3630 28be
00000220: 7fdd e6bd d47f ddbd 3355 5c3d ff03 72be
00000230: 6117 3fbe 80a1 9d3d 659e 043b 0bc1 c8bb
00000240: 9e6f 153d 9ecf 85bb e776 003d 6208 a1bc
00000250: 34fb 5cbe 2ffa 4cbe e2e0 2d3d f6c3 b7bd
00000260: fdde ce3d d622 8abd 5d19 9d3d b930 82bc
00000270: b0bb 6e3c 2117 11bb 6e8b 40bd bdb7 a03d
00000280: 3d89 a53d 5a65 203e 5266 0e3e eb81 563d
00000290: 701d 69bd 139c f4bc bdd8 d73d b4cb d93c
000002a0: 2063 17bd 4039 8dbd de69 d5bd d7b8 0cbc
000002b0: 4c29 eabc 04e1 953d 51a5 f83d b87d 90bc
000002c0: 2d88 17bd 36a1 e13c 0d5d 8a3a bb39 aa3b
000002d0: 3b61 2c3e 8668 103e e9bf 05be 767c bf3d
000002e0: 701a dcba cbef b6bc 03d9 9c3d efae 043e
000002f0: 8a0b 26bd dbd1 a23d 7b7f ddbc 6c84 1f3d
00000300: b813 913d c501 bfbd 9978 073e cc1d 99bd
00000310: 3d96 0cbe 2fad 683c b5f3 c63c 71c0 413e
00000320: 8d8e 2c3e 011b cd3c 46c4 003e 4f53 b73d
00000330: 5c33 00be 94df 043e c89e c4bb 1c95 fd3c
00000340: 895e bebd 8add 063e f0f6 8939 a179 ac3d
00000350: 9e1f f1bb 7e1b 143d e983 a33d 2a66 2d3e
00000360: 9c29 43bd ea00 1c3e 1b10 c13c 0fc6 58be
00000370: 3b4f 57bd cc96 ac3c 6995 0bbe a14f cb3c
00000380: 4f4b 083c 807b 5fbe 1c99 753c ba74 cbbc
00000390: a706 85bd d8b1 9a3c d431 1ebe db91 7cbd
000003a0: a431 363d 30f1 1bbc 03ef 3b3d 2460 073e
000003b0: 1ba6 b23b db04 4fbe 2436 59bd e59a 32bc
000003c0: 90e7 7dbe 594b 2d3d ef4f eabd ec8d bcbd
000003d0: 1f94 afbd 765b 733d 89f3 513d bc8e 153e
000003e0: 534f a8bb 916c 23be 8b79 2abd 1092 29be
000003f0: 484f babd 9f96 3b3e 56f0 963c 1edc 8bbc
0.060133632 0.20899487 0.103173845 0.06579212 0.08446107 0.03692091 -0.13489422 -0.17029756
-0.051318113 0.093412705 0.20348315 -0.033490747 0.1175795 0.018590882 0.14772333 -0.002311588
-0.08891851 -0.053941876 0.09047213 0.04741401 -0.07401988 -0.119612254 -0.119545236 0.113697454
-0.14446557 -0.14453271 -0.1190149 0.14285116 0.036138646 0.20602669 -0.050301645 -0.026101157
0.07399542 -0.13844398 -0.053906146 0.029500376 0.085996784 -0.04660516 0.15576375 0.06572827
-0.046697166 -0.037153807 -0.14147775 -0.19414787 -0.118672974 -0.02932271 0.121560484 -0.016960483
-0.025319623 -0.11490427 -0.042343784 -0.051748157 -0.12708983 -0.10642274 -0.13713072 0.04771661
-0.1547606 0.093660824 -0.12946518 0.1379695 0.12776601 0.16412438 0.15387264 -0.16199152
-0.13033387 -0.15163518 -0.042188738 -0.086015955 0.010092147 0.07060294 -0.07990644 -0.013515348
-0.06877816 0.08504414 0.09000843 0.013701292 -0.00981202 0.06370942 -0.020124668 0.00937838
0.044981938 0.11384721 0.2423534 0.20798059 0.002482479 -0.066745356 0.091378845 0.057430986
-0.033798527 -0.09783168 -0.057302862 0.1349825 -0.023866983 -0.1591687 0.0799068 -0.16727218
0.033017073 -0.11180361 0.047315273 -0.0034979074 -0.14865114 0.108717375 -0.15481193 -0.21539472
-0.120089486 -0.06090962 -0.08912754 -0.19031914 -0.07642319 0.07496875 -0.09878012 0.085742615
0.07647562 -0.1586753 -0.018169563 -0.08403706 -0.18971364 0.028833445 0.105702035 -0.03594727
-0.18475488 -0.14069934 -0.20891885 -0.053592432 0.04120014 -0.18891548 0.025660934 0.029561136
-0.018244635 -0.054123957 0.06492491 -0.21055911 -0.2109198 -0.0854945 -0.20318086 -0.16424641
-0.11272716 -0.10815397 0.05379219 -0.23634337 -0.18661262 0.07696819 0.0020236012 -0.006126528
0.0364834 -0.004083588 0.031363394 -0.019657318 -0.21580201 -0.20017312 0.042450793 -0.089729235
0.101011254 -0.06744926 0.07670853 -0.015892373 0.014571115 -0.002213903 -0.04700797 0.07847545
0.08082817 0.15663663 0.1390622 0.052369993 -0.05691284 -0.029859578 0.105393864 0.026586391
-0.036959767 -0.06895685 -0.10420583 -0.008588991 -0.028584145 0.07318309 0.121409066 -0.017638072
-0.0369951 0.027542692 0.0010556296 0.0051948703 0.16833965 0.14102373 -0.13061489 0.09349911
-0.0016792547 -0.02233114 0.07658579 0.12957357 -0.04053835 0.07950183 -0.027038326 0.038944647
0.07083839 -0.093265094 0.13229598 -0.074763864 -0.13729186 0.014201446 0.02428613 0.18921067
0.16851254 0.02503729 0.12574872 0.08951437 -0.12519592 0.12975913 -0.0060003735 0.03095489
-0.09295375 0.13170448 0.0002631466 0.084216364 -0.0073585054 0.03615903 0.07984144 0.16933504
-0.047647104 0.15234724 0.02356725 -0.21169303 -0.052565794 0.021068 -0.13631214 0.024818243
0.008318736 -0.21824455 0.014990117 -0.024835933 -0.064954095 0.01888363 -0.15448695 -0.061662536
0.044480935 -0.009517953 0.045882236 0.13220268 0.00545193 -0.20216696 -0.05303015 -0.010901188
-0.24795365 0.042308185 -0.114410274 -0.09206757 -0.08573174 0.059413396 0.051257644 0.1460523
-0.0051364093 -0.15959384 -0.04161982 -0.16559625 -0.09097153 0.18319176 0.018425148 -0.017072733

model_19/conv2d_96/Conv2D f4 [32, 3, 3, 32]
00000000: 718f b93d e51b 813e 7c38 fdbd 31b7 383e
00000010: a174 76be 858f 44be b8bb 4bbe 1ec3 023c
00000020: fb3a 08be 835e 2d3e a8f6 be3d fa48 85be
00000030: 57bb 993d 47db 2abe 6b62 d73c 6aca 423d
00000040: bba2 87bd 3e5a 033e ce03 b33c 847d c7bc
00000050: 18f4 8abe 3f5f 0bbe ee7f 07be 7087 2abd
00000060: 0572 abbe 6434 093e 88a1 bd3e 923e 3bbd
00000070: 3aef 3e3e 65fe 87be 32c6 a63c 2fa4 4f3e
00000080: 784d 20be 8358 8ebe f43f c73d e772 0ebe
00000090: 4fd8 7cbe 53c3 5fbc 8768 2bbe eb49 38be
000000a0: 74a0 9c3c b32a 8f3d 6c09 a1bd 4d44 35bd
000000b0: 8131 e4bc 7487 023d e98c 18bd 3348 97be
000000c0: 694d 663e 8f55 45be e4c4 133e d683 a63d
000000d0: d564 dd3c d37b 5d3e b0ea 193e 1add 43be
000000e0: 5e70 4ebd 673c 303c 9b29 373c f39d f2bd
000000f0: 3b35 acbd 9c0e 9b3e 29a6 093e fb98 41bd
00000100: 9c18 b53d 1a84 d23d e2a5 2abe 47fb edbb
00000110: a299 92bd 44ff 0fbe 7d7c 64bd 5019 01be
00000120: 4e39 82bd 6ffe 3d3e 8626 303e 29b4 ce3d
00000130: 7ef5 11bd dfa4 87bd efc3 b13d 1ed9 073d
00000140: 0fcf b5bd b8c9 903d c343 c03d 12a9 5abd
00000150: 4769 c83c ba3e 7c3d 36fb 05be c80b 4b3d
00000160: 4ffe 9ebe 9771 3abe 68a6 243e a8ef b4bd
00000170: ee1c ca3a ab68 97bb 17b5 0b3d 544d 9c3d
00000180: 9035 d33d 9987 7a3d c9cd c1bd 2e90 e63d
00000190: 5414 9cbe 35c8 633b 6d27 57be 6971 9dbd
000001a0: fc77 6dbd d6f4 6a3e cf39 e13d 3bcd 8bbe
000001b0: 0d10 323e 5914 953c d5c4 8dbd aafa 8b3c
000001c0: c7e7 82bd 4889 76bc 7fdf bebd e840 44bd
000001d0: f809 3c3e 4d65 d9bd 15c6 36bd 64b2 3ebb
000001e0: 127b 6ebe e1d5 843e e106 ca3b f1ca 9d3e
000001f0: ca7b 633c 6c01 2bbe daab 983d 8144 253d
00000200: 02f5 3dbe 1d8e 283e e377 5e3e b4da ba3c
00000210: 2e95 27be 49e1 e03b 06e5 22bc ba78 15be
00000220: b444 e9bb 578d f13d bb03 0f3e 2480 08be
00000230: 19cd 1dbe c919 8d3d dfff e83c 47c6 cebd
00000240: 43f1 283c 12bc eabc 9f03 d33c 1704 e83d
00000250: 9534 263e 4368 963d 96ba f33d a640 03bc
00000260: 97ef 5bbe c494 2e3d b2c4 0f3f 2b74 803d
00000270: ea8d f63c 833f 983e b3d4 79bd 6e20 8abc
00000280: 809c 523d d9e5 0b3e 05a8 dbbc d765 0a3e
00000290: 9425 bebd d3b4 16bd da50 06bd 1dcd dcbd
000002a0: 80cb c6bc 474b 043e 462b e73d b40f a73d
000002b0: 7ba9 463e ac92 85bd 29e8 163e b297 703d
000002c0: d310 ecbd 4eb2 393e 5b75 e63d 37a4 e1bd
000002d0: bbeb a9bb 059e 3dbd 0c26 883d 7e87 223b
000002e0: 6851 88be f5c5 263e 08e8 933d 4022 4abe
000002f0: 473f cb3d b938 acbd b884 353d e810 853c
00000300: e699 c0bb aee6 303e 5964 30be 1a66 613c
00000310: 05fa 5ebe 93d5 193d f115 adbd ddfe 5b3d
00000320: b4cf 14be 44c0 1b3e 32af 83b9 94db 91be
00000330: 3a5b 9fbd dd1a a9bd 1c93 273c cf52 183e
00000340: c88b b23d 61a2 103e 0016 02be 11f8 463d
00000350: df6a 8f3d b33e 98bc 1a7c 2bbe a53c efbc
00000360: 73c4 21be c6cd 853d 4a1e 313e 13d4 adbc
00000370: 7eb3 31bd 7e76 c9bd e5e8 d2bd 7cb2 ee3d
00000380: 84e9 dbbd 4e4d 08bd 0af4 173c ce8c cfbd
00000390: d3e7 8abe b9b9 79bb c897 833c 6efe 07be
000003a0: 6a42 a9bd 90ca ce3d 3898 893e 21bd e0bc
000003b0: b645 1dbb d500 d0ba 0f50 3e3d 15a9 ab3d
000003c0: da48 c63d aa00 3cbe bd6b b23d 6c14 c4bc
000003d0: 3df6 bc3d 26cb a33c 0ddc b63d fbd3 5d3d
000003e0: 45a9 92be b933 7dba 1270 103e 82f5 bd3d
000003f0: caac 053d f6ae c83d c265 723d 615b b2bd
0.090605624 0.25216594 -0.12364289 0.18038632 -0.24067928 -0.19195373 -0.19895828 0.00798109
-0.1330375 0.16930585 0.0932439 -0.2603224 0.07506435 -0.1668521 0.026292047 0.04755632
-0.06622835 0.12827393 0.0218524 -0.024351843 -0.27139354 -0.13610552 -0.13232395 -0.04163307
-0.33485427 0.13398892 0.370373 -0.04571397 0.18645945 -0.26561275 0.020358179 0.20277475
-0.15654552 -0.27801904 0.09728995 -0.1391102 -0.2469189 -0.013657409 -0.16739093 -0.17996947
0.019119479 0.06990566 -0.07863125 -0.04425459 -0.027855637 0.03186746 -0.037243757 -0.2954727
0.22490467 -0.1927092 0.14430577 0.081306145 0.02702562 0.21629266 0.15030932 -0.19127312
-0.05040013 0.010756589 0.011179353 -0.11846533 -0.084085904 0.30284584 0.13442291 -0.047265034
0.088425845 0.102791026 -0.16664842 -0.0072626206 -0.071582094 -0.1406222 -0.055782784 -0.12607312
-0.06358586 0.1855409 0.17202196 0.100929566 -0.03563451 -0.066232435 0.086799495 0.033166043
-0.08877384 0.07069725 0.093879245 -0.053383894 0.024464263 0.06158326 -0.1308411 0.049571782
-0.31053397 -0.18207394 0.16079104 -0.08834773 0.0015419999 -0.0046206317 0.034108248 0.07631937
0.103129506 0.061164472 -0.094630785 0.11257969 -0.3048426 0.0034756784 -0.21011133 -0.07687647
-0.057975754 0.2294496 0.10997354 -0.27305016 0.17388935 0.01819818 -0.06922308 0.0170873
-0.06391864 -0.015047379 -0.09319972 -0.047913462 0.18363178 -0.10615025 -0.0446225 -0.0029098028
-0.23289135 0.25944427 0.006165371 0.30818895 0.013884494 -0.16699761 0.07454653 0.040348534
-0.18550494 0.16460462 0.2172542 0.022809364 -0.16365501 0.0068627936 -0.009942299 -0.14596835
-0.0071187858 0.117945366 0.13966267 -0.13330132 -0.1541027 0.06889684 0.028442321 -0.10096412
0.0103114275 -0.028654132 0.025758563 0.11328905 0.16230996 0.07344105 0.11900823 -0.008011019
-0.21478115 0.042622343 0.5615951 0.06272157 0.030096967 0.29735956 -0.06099386 -0.016861167
0.05141878 0.13661899 -0.026813516 0.13515411 -0.09284511 -0.03679354 -0.03279195 -0.1078131
-0.024266958 0.12919341 0.11287551 0.08157292 0.19400589 -0.06522116 0.14737 0.058738418
-0.115266465 0.18134424 0.112528525 -0.110176496 -0.005185572 -0.046293277 0.06647882 0.0024799998
-0.26624608 0.16286452 0.07221991 -0.19739628 0.099241786 -0.084092565 0.044316024 0.016243413
-0.005877721 0.17275497 -0.1722578 0.013757253 -0.21775062 0.037557196 -0.084514506 0.053709853
-0.14532357 0.15210062 -0.00025116798 -0.28487837 -0.07781072 -0.08257077 0.010227945 0.14875339
0.087180674 0.14124443 -0.12703705 0.04857642 0.07002806 -0.018584585 -0.1674656 -0.029203722
-0.15797596 0.06533389 0.1729671 -0.021219289 -0.043384068 -0.09837054 -0.10298327 0.11655137
-0.10737899 -0.03327685 0.009274492 -0.10134278 -0.27129993 -0.0038105084 0.016063586 -0.13280651
-0.082646206 0.100972295 0.26873946 -0.027433934 -0.002399785 -0.0015869389 0.04646307 0.08381859
0.09681864 -0.18359628 0.08711956 -0.02393552 0.09226654 0.01999433 0.0892869 0.05415724
-0.28644767 -0.00096588914 0.14105251 0.092753425 0.032635488 0.09798996 0.059179075 -0.087088354

model_19/conv2d_97/Conv2D f4 [64, 3, 3, 32]
00000000: 8c71 c2bc 520c 07be 4326 cfbd f38b 1abe
00000010: e7c4 b83c f37e 9e3b 494a f1bd da1e 0b3e
00000020: 36f9 adbc 647c 0ebe c759 92bc 3c4a 94bc
00000030: 56e3 f93c 62d4 2bbc 3f92 b03d 163d bd3d
00000040: 95b3 85be 9823 92be 65a0 0dbd 9a6a 17be
00000050: 8e38 5cbd a3d6 1bbc 7fa2 9fbe 3211 cfbd
00000060: 5466 b3be a7ce ed3c a6b1 29be 726e 48be
00000070: 4696 b9bd b78a b7bd 8d34 34bd ebe5 5f3b
00000080: 8e7d 85bd 5a45 40be 37e7 05be 03d7 6f3d
00000090: f617 e2bd 743e 64bd f796 b93e bca1 413d
000000a0: ea47 f9bd fcc0 80be 0655 43bd ad80 433b
000000b0: 797d 5b3d 74f5 e7bd 53d7 bb3d 5b2c 00be
000000c0: f381 edbd c536 9fbd 9e12 7c3b 6472 15be
000000d0: 404c ab3d cf83 053d e800 70bc d471 883c
000000e0: 5b6e 5fbc 47e0 33be 5343 403d 99d6 39bd
000000f0: 6994 12bd 8091 80bc d7ce 1ebe c109 65bc
00000100: e6e6 013e 6a43 d1be ad7c c53c be3a 843d
00000110: 39a9 ad3d 9cf8 8fbc 197c fcbd 4340 49be
00000120: c7c6 58be c895 af3d d1e4 9abd 3a90 3bbe
00000130: ad5e 4dbd 9f02 dbbd a7b3 96bd 2dd5 43be
00000140: 3c72 0a3e d63e cdbc 3d83 da3d c312 a73c
00000150: dbac 123a de2c 923d 2b8f 06bd 11bc 293d
00000160: 66f2 28be 897b cfbd 7a4c e13d 6fc8 8ebe
00000170: 7477 f83d b5ec 43bd fff8 27bd a1c6 853d
00000180: cafb b93d da9a 1dbd 2c9c 08bd 4b5f f7bd
00000190: 86f0 57bd b258 90bd d178 93be b22b fa3d
000001a0: 6c5c 14bd 8a7f 5f3c 67da 51bd 4f89 81bd
000001b0: 8501 d7bc 9532 963c 585b 553e 2fa1 c73d
000001c0: f2f3 a7bd a440 a8bd d44a bfbd b5a4 3fbd
000001d0: 956e f0bd 0a37 fbbd 3e42 92be 9b33 11bd
000001e0: 5be4 31be 300d 19bd 8236 a7bd c09c fe3b
000001f0: 09b2 d9bc 2c6f 0bbe 49cc 0b3d b9b7 9a3d
00000200: f339 b13d cc78 bebb c358 44be e0a4 fd3b
00000210: bd88 38be 788f 4dbe 3db9 bb3b 260a dcbd
00000220: 96df 20be bf88 aabd b655 82ba 82ac a0bd
00000230: 8ef8 cbbc 7fd9 4bbd 054c 1abb eff1 bebc
00000240: 4403 5ebd 980b dcbd 9456 f3bd 2b8a 2bba
00000250: 20fe 06be 257d 9dbd f69c 1fbd aeeb 0e3e
00000260: 5eaa 5b3d 081a 39bd fd2b 2d3e a48a e83d
00000270: df56 a9bc 1364 103d 85dd 2dbd 80b7 d6bc
00000280: 6ae6 293e 553c bebe ad73 e2bb b196 6abd
00000290: 79c3 463c 1fd4 9cbc 5e81 6ebd 0854 f1bd
000002a0: b5cd 68be f665 ee3c 4afd a73d fe60 57be
000002b0: 33ff 5c3d c98a 1ebd 48e4 d23d 6fd1 28be
000002c0: 8f14 013e 4358 043d e78c 54bc d58a d53d
000002d0: b1df 8dbd 64b1 d73c 5640 383d 0f7a 813d
000002e0: 513f 123e 9a50 57be 5df1 fe3d 34f3 0bbe
000002f0: 5e25 863c 51ae 623c 88c0 c4bd 125c a33d
00000300: ed8e 74be 11c8 0e3e 7d6e a53d bbdc 02be
00000310: dd5c f6bd 2b64 8d3c 2597 8cbe 0bb8 1fbe
00000320: 9153 183e 2f4f 6fbc ad50 86bd f129 f63d
00000330: b6e3 bdbd 8d77 e13d e02b 6b3e 5bc0 ce3d
00000340: 7d60 72bd 5a9f 6ebe 193e ecbd a8c2 0cbe
00000350: b5bc 67be e45f 13be 2f3f 64bd 486b d53d
00000360: daab f2bc 490f 6fbd 08ff 33bd 86fe e7bc
00000370: 197e 6d3d 645e 5ebc a0fd f23d 7e7b 5b3d
00000380: 776b 99bd 78ea 66bc e9b2 c4bd 0dcd 6c3d
00000390: e1f5 24be 9b55 1dbe 7729 09be 06db 88bd
000003a0: 6778 16bd a487 02be 5389 86bd 5757 f9bc
000003b0: d4e6 d3bd dbd4 82bc f8e8 1a3e 2f23 913c
000003c0: bd18 e4bd e4d7 babd 074c 06bd 8dd9 9d3d
000003d0: 1572 46be bd03 71bc e304 883e e258 db3d
000003e0: 7648 8d3d 8654 27be 2f38 f23b 966a 3abb
000003f0: 55cc 89bc aa9a 153d bac9 c53d 34de b7bd
-0.023735784 -0.13188294 -0.1011472 -0.15092449 0.022554828 0.004836911 -0.11781747 0.13585988
-0.021236997 -0.13914639 -0.017865075 -0.018101804 0.03050391 -0.010487648 0.08621644 0.09240167
-0.26113573 -0.2854278 -0.034576792 -0.14786759 -0.053764872 -0.009511623 -0.31178662 -0.101107016
-0.35039008 0.029029204 -0.16571674 -0.19573382 -0.090618655 -0.08962005 -0.04399543 0.0034164141
-0.06518088 -0.18776456 -0.13076483 0.05855466 -0.110397264 -0.055723622 0.3624799 0.047273383
-0.1217192 -0.25147235 -0.047688507 0.0029831335 0.053586457 -0.11326113 0.09171929 -0.1251692
-0.115970515 -0.07774118 0.0038463245 -0.14594418 0.08364153 0.032596406 -0.014648654 0.01665584
-0.013637151 -0.17566024 0.046939205 -0.045370672 -0.035786066 -0.01569438 -0.1550859 -0.013979376
0.12685737 -0.40871745 0.024107302 0.06456517 0.08479542 -0.0175746 -0.12328357 -0.1965342
-0.21169578 0.085734904 -0.075631745 -0.18316737 -0.050139118 -0.10693859 -0.07358485 -0.19124289
0.1352014 -0.025054377 0.10669563 0.020394688 0.00055952155 0.07137464 -0.03285138 0.04143912
-0.16498718 -0.10130984 0.11000915 -0.27887294 0.12132159 -0.047833163 -0.041008946 0.06532026
0.09081228 -0.038477756 -0.033352062 -0.120787226 -0.052719615 -0.07048167 -0.28803113 0.122153655
-0.036220953 0.0136412475 -0.051233675 -0.06325018 -0.026245842 0.018334666 0.20835626 0.0974754
-0.08200826 -0.08215454 -0.09340444 -0.046787936 -0.11739842 -0.12266357 -0.28566164 -0.035449605
-0.17372267 -0.037366092 -0.081646934 0.007770151 -0.026574152 -0.13616627 0.03413037 0.075545736
0.08653631 -0.00581274 -0.19174485 0.007740602 -0.18020912 -0.2007426 0.0057288692 -0.10744123
-0.15710291 -0.083268635 -0.0009943757 -0.07845403 -0.024898794 -0.049767967 -0.0023543846 -0.023308722
-0.054202333 -0.10744399 -0.11881748 -0.0006543721 -0.13182878 -0.07689885 -0.03896805 0.13957092
0.05362927 -0.04519084 0.16911311 0.113545686 -0.020671306 0.03525169 -0.042447586 -0.026210546
0.16591802 -0.37155405 -0.0069107623 -0.057272617 0.012131565 -0.019144116 -0.058228843 -0.11783606
-0.22734721 0.029101353 0.08202608 -0.21033093 0.053954314 -0.038706575 0.102974474 -0.16486143
0.12605499 0.032310735 -0.012973047 0.10426871 -0.069274314 0.026329704 0.04498323 0.06322109
0.14281966 -0.21026841 0.1244838 -0.13666993 0.01637524 0.013835506 -0.09607035 0.079765454
-0.23882647 0.13943507 0.080777146 -0.12779514 -0.12029431 0.017259678 -0.27459064 -0.1559755
0.14875628 -0.014606281 -0.065583564 0.120197184 -0.09271948 0.110091306 0.22965956 0.10095283
-0.05917405 -0.23302975 -0.11535282 -0.1374613 -0.2263058 -0.14392048 -0.05572432 0.10420853
-0.02962296 -0.058364186 -0.04394439 -0.028319608 0.057981584 -0.013572309 0.118647814 0.05358457
-0.074912004 -0.014093988 -0.09604437 0.05781274 -0.1610942 -0.15364687 -0.13394724 -0.066824004
-0.03673592 -0.12747055 -0.06569161 -0.030437155 -0.10346761 -0.015970638 0.15127933 0.017716972
-0.11137531 -0.09123209 -0.03278735 0.0770751 -0.19379456 -0.014710364 0.26566228 0.107103124
0.068985865 -0.16340837 0.0073919515 -0.0028444878 -0.016821066 0.036524452 0.09657617 -0.08977929

model_19/conv2d_98/Conv2D f4 [32, 5, 5, 64]
00000000: 5883 ad3c 2452 dfbd 7608 0cbd ec76 4cbd
00000010: 027d 5c3c 5120 53bc 0868 47bd 0e79 e6bb
00000020: 50f6 ebbb 47e0 ecbb 2958 d3bd f2bf 783c
00000030: f1d4 86bc c0e5 553c 0234 eebd c6d0 3bbc
00000040: a3f0 f2bc a579 85bd c67c 44bd 9ebb 513d
00000050: 75e8 273c bf8c 53bd 38e9 12bd dba4 e63c
00000060: 579f 94bd fbb1 32bd b145 8e3a 6464 6ebc
00000070: a98b afbb bb39 8dbc 31b3 50bd 2bc3 01bd
00000080: e0b4 8fbb bdbe 92bc fd9b 873c 7653 92bb
00000090: d3ac e03c b46b 5bbc 0870 e9bd a598 54bd
000000a0: 514d 80bd d2c1 08bd 9760 18be d510 7cbc
000000b0: 5434 d8bb b42f e6bd 5a89 12bc 7243 c1bd
000000c0: e2a4 2b3d 4153 92bc 8407 93bd 8257 c5bd
000000d0: 5fe0 8abb 0041 9cbd 6882 0cbd bd46 803d
000000e0: 8345 e1bc e698 d3bd 81e1 45bd 87f5 013d
000000f0: 57d5 7abc 3c03 50bd 9578 05bc 40bc adbd
00000100: beda a9bd 3b1f f03c 3849 cdbd c617 76bd
00000110: 6b52 6b3c b926 a9bc a82e 6c3d af33 15bd
00000120: 9b17 f2bc c786 7d3d 5fe9 603b 6dc3 9e3a
00000130: f732 35bd b11f 3abd 2d1e c6bd 488a 32bd
00000140: 87cc c3bc b342 2e3a a968 2dbd 5154 c3bd
00000150: ca7e 9ebd e640 cd3c 7a73 edbd 69fd 293d
00000160: c99b cfbd 71ed a03d ca21 d6bc 9f91 e53b
00000170: fbec 97bd 94b5 473d 0a93 13bd 4049 f0bd
00000180: 1d37 323d d6be 38bd 8a86 bbbd 62db 233d
00000190: cb62 41bd 6251 29bd c41f 2dbd 7108 5e3b
000001a0: f26b a9bc beb5 cdbd 554e 5dbc 6330 92bd
000001b0: ce4b 183d 80c0 c2bb 3a32 543d a644 a1bb
000001c0: 3593 58bd 3e86 953d 36be 50bd 7a1d 873b
000001d0: 4dcd f6bb ba4f c83c cf6b aa3c 14f7 b73d
000001e0: cb76 aabd 2394 babd 7612 3f3d 5ca0 bf3c
000001f0: 9eec fcbc 1e2c 64bd 119f eb3c c950 aebb
00000200: b852 a53c 6eb5 e2b9 454f b53b 4874 20bd
00000210: 293e 7bbb 9827 dcbc 928c 20bb 1fda 453d
00000220: 2234 21bd 9348 14bd 684a 6ebd ccb1 3dbd
00000230: bf68 aebc e3f9 adbd b6f0 60bd e71d 833c
00000240: 0232 afbd b28b 0ebd a3ed c3bc 8a64 94bd
00000250: de23 2cbe 9371 f63b f4f0 813c 6aca f5bc
00000260: 337d 65bd b878 d23c cf1d c43c ad3a 1d3d
00000270: d10d 64b9 65d8 5d3a 6845 23bc d881 8a3c
00000280: 875b 0d3d fba1 b6bd abab 80bd 69ae 2c3c
00000290: 64d4 0abd ff20 933d 7c46 9abd d125 c5bc
000002a0: 86f2 88bc 43c1 b8bd 0078 40bd d541 b2bc
000002b0: 5413 f0bc 6412 a4ba 25be 833c 854e 0cbd
000002c0: 6c29 263d 2c9c 903d 70f2 d63d 7fde c93c
000002d0: f85b c33c 2ac7 a6bc 916d fbbc dcd8 e83b
000002e0: 3fdd 0abe 9dd8 1ebd 6648 c8bd d9fc 13bb
000002f0: b9f3 47bd faf5 dfbd d2aa 263d fd8a dd3b
00000300: 0f0d 83bd 6d90 7fbd 72ff 49bd 91c1 fcbd
00000310: 078a 043d 7c1d b0bd 1e21 a6bd d6d1 d43c
00000320: e9e8 b23b 972a 10be 362a 3fbd ddcd 2dbd
00000330: fb48 b7bc 4756 91bd d171 a1bd 3ceb 2bbd
00000340: bab1 b4bd ff14 0bbd 9d79 63bc 8abe 8d3c
00000350: 8152 283d ed10 45bc 58db 153c 474a 71bd
00000360: cd22 1abd 80ba 66bd ef67 d0bc 4c9c c7bd
00000370: 269c 7dbd 2cae 3ebd 965f f4bb 6ba0 ea3b
00000380: 570e 133d 8eba 893d 5941 42bd bb57 39bd
00000390: 9288 ef3c c8ad a23d f0ee 0fbe 218c e5bb
000003a0: 4156 c8b9 0a23 0cbd d642 50bd bbaa 68bd
000003b0: e7df 1fbd 11b2 b6bc c2d3 a6bd 2e1c 563b
000003c0: 3e6e b3bd 9e70 e5bd 92c0 f93c bf60 1dbd
000003d0: d42c 833c 268d adbd bdf8 7dbd 7402 693d
000003e0: 44ab 613d b842 e2bc a75d 1ebc 2e41 703b
000003f0: c96e 69bd d4c5 0dbe b8e6 d3bd c351 36bd
0.021180794 -0.10904339 -0.034187756 -0.0499181 0.013457539 -0.012886123 -0.048683196 -0.007033474
-0.0072009936 -0.0072288844 -0.103195496 0.015182482 -0.01645896 0.013055265 -0.116310135 -0.01146335
-0.02965576 -0.065173425 -0.047970556 0.051204316 0.010248293 -0.051647898 -0.035866946 0.028154781
-0.07256954 -0.043626767 0.001085451 -0.014550302 -0.005357225 -0.017239442 -0.05095214 -0.031680267
-0.0043855757 -0.017913217 0.016553873 -0.0044655157 0.027426159 -0.013392378 -0.113983214 -0.051903386
-0.06264747 -0.033387966 -0.14880596 -0.015384872 -0.006598035 -0.112395674 -0.00894388 -0.09436692
0.04190529 -0.017861964 -0.07179168 -0.096358314 -0.004238173 -0.07629585 -0.034304053 0.06263492
-0.027498966 -0.103318974 -0.04831076 0.031728294 -0.015309653 -0.050784335 -0.008146425 -0.084831715
-0.08293675 0.029311767 -0.10023731 -0.060081266 0.014362912 -0.020648347 0.057661682 -0.036426242
-0.029552272 0.06189611 0.0034318788 0.0012112685 -0.044238057 -0.04544038 -0.09673724 -0.043588907
-0.023901237 0.0006647512 -0.04233614 -0.095375665 -0.07739027 0.02505536 -0.11594291 0.041501436
-0.101371355 0.07857788 -0.026139159 0.007005885 -0.07418247 0.04875715 -0.0360289 -0.11732721
0.04350959 -0.04510387 -0.09156521 0.04000414 -0.047213357 -0.04133738 -0.042266622 0.0033879543
-0.020681355 -0.1004443 -0.013507445 -0.07138135 0.037181668 -0.005943358 0.051805712 -0.0049215136
-0.052874763 0.07300995 -0.05096265 0.004123387 -0.007531798 0.02445208 0.02080336 0.08982673
-0.08323439 -0.09110286 0.046648465 0.023391895 -0.030874547 -0.055706136 0.028762372 -0.005319689
0.020181045 -0.00043241255 0.0055331313 -0.039173394 -0.003833661 -0.026874349 -0.002449785 0.04830372
-0.03935636 -0.036202025 -0.058176428 -0.04631214 -0.021290181 -0.08494928 -0.05491706 0.01600547
-0.0855446 -0.034801193 -0.023917025 -0.07245739 -0.16810557 0.0075208633 0.015861966 -0.030003745
-0.056027602 0.025692329 0.023939995 0.038386036 -0.00021748921 0.0008462726 -0.009965278 0.016907617
0.034511115 -0.08917614 -0.06282743 0.0105396295 -0.033893958 0.07184028 -0.07532975 -0.024065884
-0.016717207 -0.09021237 -0.04698944 -0.021759907 -0.029306091 -0.0012517688 0.016081879 -0.03425457
0.040566847 0.070610374 0.1049546 0.024642227 0.023847565 -0.02035864 -0.030691894 0.00710593
-0.13560961 -0.038780797 -0.09779434 -0.002258113 -0.048816416 -0.10935588 0.04069025 0.0067609535
-0.06398975 -0.062393595 -0.049315877 -0.12341607 0.032358196 -0.08599374 -0.08111785 0.025978964
0.005459894 -0.14078747 -0.046671115 -0.042432655 -0.022373667 -0.07096534 -0.07883037 -0.041972384
-0.08822961 -0.03395557 -0.013883975 0.01730277 0.041094307 -0.012027961 0.009146534 -0.058908727
-0.037630845 -0.056330204 -0.025440184 -0.09746608 -0.061916493 -0.046552822 -0.007457684 0.0071602366
0.035902347 0.067250356 -0.0474256 -0.045249682 0.029239926 0.079433024 -0.14055991 -0.00700523
-0.00038211237 -0.034213103 -0.05084499 -0.056803446 -0.03903189 -0.022301706 -0.08145858 0.0032670605
-0.087612614 -0.11203121 0.030487332 -0.038422342 0.016012587 -0.084741876 -0.062004793 0.056887105
0.055094972 -0.027619705 -0.009665883 0.0036659944 -0.05699042 -0.13844997 -0.103467405 -0.044511568

model_19/conv2d_99/Conv2D f4 [16, 3, 3, 32]
00000000: 81fd 8fbd d71e 9dbd 9518 9e3d 2b2b a03d
00000010: 5a63 7e3b e164 3abe d498 8e3d 3e26 04be
00000020: bdcd e4bd 5346 843d 9e9d 933d 920b d73b
00000030: 5aaf c3be bea1 c5bd c3fe d3bd 56e8 a83d
00000040: af70 fc3d 103a 333e 26df c03c 919c 1b3e
00000050: cb52 c5bd 81b2 93bd e47a f7bd 6d80 d5bb
00000060: c5cf b73d f176 98be 3382 00be e640 9abd
00000070: c04b c9bd 0932 6abd 0ff3 ca3d f6c9 343e
00000080: bd8e 113e 8f6f 113e a192 0b3d 5699 723d
00000090: bb00 a73d 06e4 14be 7ea3 9e3d 1716 8e3d
000000a0: 2ab2 aabd f0b1 d03d ef64 0c39 15a6 523d
000000b0: 76b4 87be 4d07 23be a8e7 acbd 42bd bdbd
000000c0: 513e 133e 228e 16be 338c 86bc 978c 9fbc
000000d0: 705a 093d ac24 5fbe 5b68 c1bd 4488 0f3e
000000e0: c2d1 5d3e 9d3f 91bd 1645 b9bd 3bb9 fa3d
000000f0: cf8e d33c c3d6 0dbd 5e8a 0e3e 59d5 213e
00000100: eed8 ae3d bb07 f63d da53 363e 16bc 7dbc
00000110: c83c 563c af6b fbbc c55b 093d f55d 3fbe
00000120: 8632 7f3b 719d 6abd a8e2 033d 0b8c 7e3d
00000130: 2fd6 5bbd c11e 3abe e2da 1cbe 7226 83bd
00000140: d684 6d3d edbf 603e 9545 10bd 9456 caba
00000150: f45b d83d 569d 203e ca62 a5bd 30fe adbd
00000160: a1a1 ec3c 6479 a5be cc72 863e 6651 d03d
00000170: 2713 c93c 3791 133d 7f61 0e3e 2101 903b
00000180: 8be8 9f3d 68ff 2ebc 8c67 403e 9c63 513d
00000190: c6d5 653d ae71 adbd 7033 00bd ad99 913c
000001a0: 30b8 03bd 6972 533d 9dfe 663d 0e7b 48bd
000001b0: 359c debd b1bb 99be b97e 3fbe 9e5c 9ebd
000001c0: 728a ff3d fe42 e9bc 25fd a0bd 450e 0dbe
000001d0: 469a d5bd 0e16 b9bd 7dbb 14be e0d7 893d
000001e0: 569f 813e 0285 9cbd 7525 b83d e20d c6bd
000001f0: 1ee0 383d 6317 5f3b 0b9e 6d3d 6bdd 413d
00000200: d8a0 82bd 6721 923d b141 d53d fd28 21bd
00000210: 9e7a 93bd 499a d8bd 400d 4dbd f8c3 79be
00000220: 2436 6c3e e6f8 2abe ae2d b6bd 6d83 c4bb
00000230: f3a4 4fbd 5eb1 d8bd 4c41 ebbc 12ee dfbc
00000240: 0714 fe3d 48b6 a8bd 2ab0 a63d 78de 1a3d
00000250: 3d8b 26be 0ee1 343d 22d3 20be be53 b63c
00000260: 1afb a23d b4e0 24be cd80 babd c900 33bd
00000270: 9c9a aebc 91db 7ebc 613d 183d e570 2e3d
00000280: 243d d8bd 4fb7 91bd 0836 00bd 1b90 9fbd
00000290: 4395 c2bd 66d1 8e3d 06f0 123c 0ae1 04be
000002a0: 4c7b 9eba 0244 4fbd 6733 63bd 8751 933d
000002b0: fbc4 943c 6bf3 03be a3e0 173c 026e 953d
000002c0: 3ecd a73c 3c10 023e 24c4 443d 9ecc 603d
000002d0: 8d6c 603d e2fa 033e 6f24 3ebb 39d1 1dbe
000002e0: 3970 cc3c 220f 14be b240 afbd 63a0 1c3c
000002f0: b111 89bc a693 b9bd e9cb 42bc df55 9cbd
00000300: 06c0 25bd 115b 083c 36a5 04be 5b3e 2dbd
00000310: f571 dcbd f798 a8ba 0d7e 48bd 2c4c 843d
00000320: c7fa d53d 1c02 743c be4a 07be f37a eb3c
00000330: 5846 b6bd 4745 f83d 8a57 31bc 86ab 0fbe
00000340: ac51 6cbd f58d f63d 8ffc 0fbe 44b9 51bd
00000350: a73c da3d cf3c fbbd e997 0dbd d9bb ecba
00000360: 86ac 593e 18cc f1bd ad1e f0bc 06cb 01bd
00000370: f43d 243b 5fc0 83bb 24be b2bd a7e1 133e
00000380: 7d86 19be f220 1d3e 7a6f 82bd 4ab2 7fbd
00000390: 9652 f3bd b151 843d 123c 693d 1ae4 39be
000003a0: aca6 67bd 2e57 3bbc 40ee c3bc 37a1 8f3c
000003b0: e805 75bb 0c01 5dbe baf4 65bd 100b 6e3d
000003c0: a165 ac3e e0fa 4cbd 16d1 18bd 899a 303d
000003d0: 9073 143d 7a3a 45be 9be4 723a a380 073c
000003e0: eda1 63bc 33c5 4dbe f543 03be 317e 0fbe
000003f0: db55 64bd 0790 48bd 3848 09bd 8ebf 793c
-0.07030774 -0.07671898 0.077195324 0.07820734 0.0038816542 -0.18202545 0.069627434 -0.12905213
-0.11172054 0.06458726 0.072077975 0.0065626586 -0.3821972 -0.096499905 -0.10351326 0.082474396
0.1232618 0.17502618 0.023543905 0.15196444 -0.09634932 -0.07211781 -0.120839864 -0.0065155537
0.08975176 -0.29778245 -0.12549667 -0.0753191 -0.09828901 -0.057176623 0.09909641 0.17655167
0.14214607 0.14202712 0.034075383 0.059228264 0.08154436 -0.14540109 0.077460274 0.06937807
-0.08334763 0.10190189 0.00013389041 0.05142792 -0.26504868 -0.15920754 -0.084426224 -0.09264614
0.1437924 -0.14702657 -0.016424274 -0.019476218 0.033533514 -0.21791333 -0.09443732 0.14016825
0.21662048 -0.070922114 -0.0904638 0.12242361 0.025824932 -0.03462864 0.1391997 0.15804042
0.0853747 0.12013193 0.17805424 -0.015486738 0.013076015 -0.030690996 0.033534784 -0.18688186
0.0038940026 -0.057279054 0.032198578 0.062145274 -0.05367106 -0.18175794 -0.15317872 -0.06403817
0.05798801 0.21948214 -0.03522261 -0.0015437179 0.10564414 0.15685019 -0.08075483 -0.08495748
0.028885664 -0.32319176 0.26259458 0.101717755 0.024545265 0.03602716 0.1390438 0.004394666
0.07808026 -0.010681011 0.187895 0.051120386 0.056112073 -0.08468948 -0.031299055 0.017773474
-0.032158077 0.051622782 0.056395162 -0.04894548 -0.10869638 -0.3002601 -0.18700685 -0.07732509
0.12477578 -0.028474327 -0.078607835 -0.13774975 -0.10429816 -0.0903741 -0.14524646 0.06730628
0.25316876 -0.07642557 0.08991519 -0.09670617 0.04513561 0.003404104 0.05801205 0.0473303
-0.06378335 0.07135277 0.1041292 -0.03934573 -0.07201122 -0.105763026 -0.050061464 -0.24391162
0.23067528 -0.1669651 -0.088954315 -0.0059971125 -0.050694417 -0.10580705 -0.02871766 -0.0273352
0.12406164 -0.082378924 0.081390694 0.03780982 -0.16264053 0.04415994 -0.15705541 0.022256728
0.0795805 -0.16101342 -0.09106598 -0.04370192 -0.021313958 -0.015555278 0.03716791 0.042588133
-0.10558537 -0.071150415 -0.03130153 -0.07791158 -0.09501126 0.06973533 0.008968359 -0.1297647
-0.0012091189 -0.050601967 -0.055468943 0.071932845 0.018160334 -0.12885825 0.009269866 0.07296373
0.02048361 0.12701505 0.048038617 0.05488264 0.054791022 0.12888673 -0.0029013415 -0.15411843
0.024955856 -0.14458898 -0.085572615 0.009559724 -0.016732069 -0.09061365 -0.011889436 -0.07633566
-0.04046633 0.008322493 -0.12953648 -0.042295795 -0.10763923 -0.001286297 -0.048948336 0.06459841
0.104482226 0.014893081 -0.13212106 0.02874515 -0.08900136 0.121225886 -0.010824094 -0.14030275
-0.057695076 0.12038795 -0.14061187 -0.051202074 0.106561 -0.12267458 -0.0345687 -0.0018061354
0.21257219 -0.11806506 -0.029311502 -0.03168776 0.002506134 -0.004020735 -0.08727673 0.14441548
-0.1499271 0.15344599 -0.06368919 -0.06242589 -0.118809864 0.06460894 0.056942053 -0.1815342
-0.056555435 -0.0114343595 -0.023917317 0.017532928 -0.0037387554 -0.2158243 -0.056141593 0.05811602
0.33671287 -0.05004394 -0.037308775 0.043116126 0.03624302 -0.19260588 0.0009265632 0.0082704155
-0.013893587 -0.20094757 -0.12818892 -0.14012982 -0.05574594 -0.04896548 -0.03351614 0.015243424

std.constant f4 [32]
00000000: e76a c13a eb4b f83c ec01 c33d a943 893d
00000010: 1435 fc3d df86 13bd ea58 9ebe 36fd 91be
00000020: b40b b23c 46ee b7bc 0916 873c c463 cb3d
00000030: 1fbb 593c 0af9 54be 3c96 50bc 4015 933a
00000040: 08d7 e4bc ba78 aa3c d5b4 973d c520 a6be
00000050: 3e6d 833d c71b 3c3c 4354 2a3d 4716 01be
00000060: 4a56 ec3d 1d4c ad3d 70f2 06bd ce82 393b
00000070: 8927 a6bd 97bf afbc 8181 eebd 28bb ff3c
0.0014756591 0.030309638 0.09521851 0.06702358 0.12314811 -0.036017295 -0.3092721 -0.28513497
0.021734096 -0.022452485 0.01649 0.09931138 0.013289242 -0.20798126 -0.012731131 0.0011221543
-0.027934566 0.02080952 0.07407538 -0.32446876 0.06417321 0.011481232 0.041584264 -0.12606154
0.11539896 0.08461783 -0.03294605 0.0028306725 -0.081130095 -0.021453662 -0.11645795 0.031217173

std.constant1 f4 [32]
00000000: 744d 77bd b6a1 c4bc 854a 2bbe 57d9 00bd
00000010: e5a7 373d 2d52 22bd cdd5 4fbc 003a 37be
00000020: 9f10 8bbe 5653 bdbc c2b8 97bc d42d 2bbd
00000030: 6bf3 47bd b8a9 5bbd ad77 75bd 5911 4e3d
00000040: 9632 3f3c 92d6 973a 4a0c 1dbd 166c cd3c
00000050: 50b4 0ebd 853a 833d 687e 7abb 0b68 963d
00000060: 93c0 913c e331 803c 3912 04bc f576 12bd
00000070: 97de 75bd 1ccd 48bd 0b0a 573d 41ec 38bd
-0.0603766 -0.024002891 -0.16727646 -0.03145727 0.04483785 -0.03962915 -0.012685251 -0.17893219
-0.27161118 -0.023111027 -0.018520717 -0.041791752 -0.048816126 -0.053628653 -0.059928585 0.050309513
0.0116697755 0.0011584333 -0.038341798 0.025075953 -0.03483993 0.06407646 -0.0038222317 0.07344063
0.017792022 0.015648788 -0.008060985 -0.035757978 -0.06002673 -0.049023733 0.052499812 -0.045147184

std.constant2 f4 [64]
00000000: dae1 093d b7b2 113d 5632 2fbe 70fa 39bd
00000010: fd71 92bc 5e61 16be 0883 b7ba e52d eebc
00000020: ac71 2abe 549a 3dbc 32f2 dfbb 274a cabc
00000030: a6c2 46bd 5776 7b3b 31b0 41bd cd6d 88bd
00000040: ecea 7fbc 47d8 15be 9af4 87bc afe8 febc
00000050: 796f a03c 1186 85bc b33a 85bc c0bb a53b
00000060: ccfd 69bc d67f a7bd 1931 4cbd 1cbf 27bc
00000070: d228 21bd 8001 cbbd 9fc4 78bd f3c0 5d3c
00000080: fee7 a1bc 2ce3 3abc 9d43 4abd 1b83 683d
00000090: bc7d 92bd a19e a5bc dc81 83bc 159e 10bc
000000a0: 4fba 15be 6745 30bc d540 42bc 3280 ffbc
000000b0: 8c09 8fbd 266a 28bc 3018 0f3b cdb7 42bc
000000c0: c400 88bd cf41 a7bd 918b 7dbc 3373 09bd
000000d0: e4fc cfbc 0417 113d e354 07bd 88f2 0fbc
000000e0: 8af0 1dbd 7c9c 00be a80b ccbd 7f02 3abd
000000f0: 6d2c 303d 1564 b13b 9434 c2bd d7a4 11bd
0.033662654 0.035570826 -0.17109045 -0.04540485 -0.01787662 -0.1468558 -0.0014000842 -0.029074619
-0.16644925 -0.011572439 -0.006834292 -0.024693562 -0.048525475 0.0038370097 -0.04728717 -0.06661568
-0.015619975 -0.14633285 -0.016596127 -0.031116812 0.019584404 -0.01629928 -0.016263342 0.005057782
-0.014281701 -0.0817868 -0.04985151 -0.010238435 -0.03934557 -0.099123955 -0.060734387 0.013534772
-0.019763943 -0.011406701 -0.049380887 0.056765657 -0.07152888 -0.020217242 -0.016053133 -0.008826752
-0.14621852 -0.010758734 -0.0118562775 -0.031189058 -0.06984243 -0.010279214 0.0021834485 -0.011884642
-0.06640771 -0.08166849 -0.01547517 -0.03355713 -0.025389142 0.03542234 -0.03303994 -0.008785851
-0.038559474 -0.12559694 -0.09963161 -0.045412537 0.043011118 0.005413542 -0.09482685 -0.035557594

std.constant3 f4 [32]
00000000: f5ef 34bd 929f 10bd 4f29 6ebd 89c1 ebbd
00000010: a4df 11bd 7014 8bb9 6a46 80bd f7d8 e3bc
00000020: 5f82 a1bd 0efc 1cbd a4e7 1abd efe9 f7bc
00000030: 6fa6 b9bc ab78 8fbd 9e91 7ebc 24c2 67bc
00000040: 6930 f3bc 0243 6fbd 9ed4 59bd 7b5a acbd
00000050: fb35 b8bd 3758 65bd 992a 9ebd 8cd5 a0bc
00000060: 4977 8cbd 9bc9 a8bc 4fa2 84bd c2cb 8cbd
00000070: 8589 10bd 79f0 30bd 7c4a f3bb 2083 90bc
-0.044174153 -0.035308428 -0.058144864 -0.11511523 -0.03561367 -0.00026527373 -0.062634304 -0.027813418
-0.078861944 -0.038326316 -0.037818566 -0.030262915 -0.02266237 -0.070054375 -0.0155376475 -0.014145408
-0.02968617 -0.058413513 -0.053181283 -0.08415695 -0.08994671 -0.05599233 -0.077229686 -0.019633077
-0.06858689 -0.020603945 -0.064762704 -0.06874801 -0.0352874 -0.043198083 -0.0074246507 -0.01764065

std.constant4 f4 [16]
00000000: 9a5a bf3b 1bdd 1b3d 7353 32ba 45c9 f2b9
00000010: 21f8 d8bd e5ee 22ba 5a6b 243d 62e3 0cbb
00000020: 89bc 90ba d19b 583c c05f ffba 58c9 cb3c
00000030: 8b9a cebb 4e98 d5bb 120c e73b 6575 153d
0.005839658 0.03805266 -0.0006802596 -0.00046307794 -0.10594202 -0.00062154076 0.04014144 -0.0021497835
-0.0011042516 0.013220743 -0.0019483492 0.024876282 -0.006305044 -0.0065184003 0.0070509994 0.03648891
